saved-models/GAT_model.pt (torch, 893716 bytes, 10 tensors)

conv1.att_src f4 [1, 4, 64]
000000 60 5a 2c be b7 43 46 be 6f 84 eb 3d 16 da c4 bd
       -0.1683135 -0.19361769 0.11499869 -0.09611909
000010 21 77 9b be fa 9d 71 3d b9 32 1b 3e 9c 3b 39 bd
       -0.30364326 0.05898855 0.15156068 -0.045222864
000020 23 a5 42 bb ce 90 0e be 53 5b e2 bd 44 23 a5 bc
       -0.002970048 -0.13922426 -0.11052575 -0.020158418
000030 5a 95 a1 be fa 87 a1 3e c8 b1 9b bd cc 75 11 be
       -0.3155926 0.31549054 -0.076022685 -0.14205092
000040 d7 57 9e 3d 26 53 0f be 3f d5 5f 3e 77 c2 a0 3e
       0.07731598 -0.13996562 0.2185869 0.31398365
000050 05 3e 61 3e 1d cf 3d be 68 3d 8c be d3 38 2c 3e
       0.21996315 -0.18536039 -0.273906 0.16818552
000060 f2 d5 ce 3d 72 71 4a bd 52 d6 13 3e 84 11 d6 3d
       0.100994006 -0.049424596 0.14437225 0.104525596
000070 f7 cf 64 3e c9 e3 1d be 35 4f 5f be f3 fd 92 3d
       0.22344957 -0.15418924 -0.21807559 0.07177343
000080 df 2c 65 be d9 a7 c6 bc 99 05 eb bd 81 3a d0 bd
       -0.22380398 -0.024249958 -0.11475677 -0.10167409
000090 72 f7 a3 bc da 65 63 3e 3a 98 3d be f5 f7 ae bd
       -0.020015452 0.22206822 -0.18515101 -0.08543388
0000a0 05 23 6c 3e bc c4 5b be f9 1c a8 bc 50 8d 59 bd
       0.23060234 -0.21461767 -0.020521628 -0.05311328
0000b0 1e 99 aa be af da d3 bc 06 a9 03 3e e5 2b a2 be
       -0.33319944 -0.025861112 0.12857446 -0.31674114
0000c0 85 d6 2f be 15 ff 46 3e 26 a2 45 3e d8 a4 07 be
       -0.17171676 0.19433244 0.19300136 -0.13246477
0000d0 ee 03 4a be 18 5e 92 be c2 13 86 bc 36 2d 4b be
       -0.19728062 -0.28587413 -0.016366843 -0.19841465
0000e0 6d f7 43 3e 22 94 a9 3e ae 9b 2f bd fc 78 fd bc
       0.19137354 0.3312083 -0.042873077 -0.030941479
0000f0 e0 a3 11 be 0d e6 06 be d4 fd 76 bc 0f da a0 3d
       -0.1422267 -0.13173695 -0.015075166 0.078540914
000100 50 0e 44 bd 07 c5 72 bd 3e e0 59 3e 85 71 8c b9
       -0.047865212 -0.05926993 0.21276948 -0.0002678746
000110 9e ba 87 be 0d 35 90 be 40 62 22 be 1c 77 b3 bd
       -0.26509565 -0.28165475 -0.15857792 -0.08762953
000120 50 26 20 3e bb 0f 0d be b4 39 a6 bd 86 98 84 be
       0.15639615 -0.13775532 -0.08116475 -0.25897616
000130 4d 04 97 3d df 32 32 be 21 40 0b bd f5 1b 57 3d
       0.07373867 -0.17402218 -0.033996705 0.052516896
000140 45 20 98 be 12 88 0d be 46 af 69 3c 73 44 84 be
       -0.2971212 -0.13821438 0.01426298 -0.25833473
000150 f9 22 79 3e 19 a5 41 3d f1 52 04 3d eb 9a e1 3d
       0.24329747 0.04727659 0.03230566 0.110158764
000160 de 19 31 be ab f1 97 bd 18 fa 2a be fa 68 2f 3e
       -0.17295024 -0.074191414 -0.16696966 0.17129889
000170 c1 99 ad bd fd c5 61 bd 4b e9 c7 3d 2e 05 93 be
       -0.08476592 -0.055120457 0.09761294 -0.2871489
000180 97 43 96 be 2e fd 3a 3e 50 a4 33 be 4a 6d 4b 3e
       -0.29348442 0.18260643 -0.17543149 0.19865909
000190 56 80 54 be f0 2e 9c 3e e9 65 a2 3e 5e c8 7c 3e
       -0.20752081 0.3050456 0.31718376 0.24685809
0001a0 0b d5 73 bc d8 33 36 be 25 4b af bc 33 e9 24 be
       -0.014882336 -0.17793214 -0.021398136 -0.16104583
0001b0 79 0e 4b be e8 2c 8d bd c0 1b 77 3d 67 69 99 be
       -0.1982974 -0.06893331 0.0603292 -0.29963228
0001c0 f2 7b 69 bd 0d 06 3f be dd 6e 03 be 89 f1 30 be
       -0.05700297 -0.18654652 -0.1283526 -0.17279638
0001d0 9c 9f 75 ba 9c 2f 67 bd de 35 77 be 95 82 a2 be
       -0.0009369792 -0.05644189 -0.24141642 -0.3174025
0001e0 15 2a 77 be b6 03 79 3e 67 49 0b be 2c e9 e9 3d
       -0.24137147 0.24317822 -0.1360222 0.11421427
0001f0 4d a9 8d 3e 21 88 5d 3e ac 6e 9c be 0b 42 93 3d
       0.2766823 0.2163396 -0.30553186 0.07190331
000200 0c 0d 9e bc 95 ce cf bd 2d e9 93 be c2 c6 2f 3e
       -0.01929333 -0.10146824 -0.28888837 0.17165664
000210 3a 7c 2b be 31 39 8e 3e 24 12 a6 3e 8e 14 8b 3e
       -0.16746607 0.2777801 0.32435715 0.2716412
000220 0a 10 26 3d b8 9b de 3c 65 2d 42 3e d4 86 7f 3e
       0.04054264 0.027173862 0.18962629 0.24953777
000230 e0 b1 1a 3c 03 07 8a be 14 9f 50 3e 41 29 2e be
       0.009441823 -0.26958475 0.20373183 -0.17007925
000240 a8 cf f2 bd 35 3e 29 3e e2 df d7 bd c4 f4 84 be
       -0.118560135 0.16527636 -0.10540749 -0.2596799
000250 0d e3 6d be 09 17 9b bc 2c 65 12 be 78 77 29 3e
       -0.23231144 -0.018931882 -0.14296407 0.1654948
000260 48 36 4b 3e 5d c5 69 3c b7 1a 70 be 0d 32 3a 3e
       0.19844925 0.0142682465 -0.23447691 0.18183155
000270 a7 84 ee bd cc fa 03 3e 3f 6d c4 3d af d8 67 bd
       -0.11646395 0.1288864 0.095911495 -0.05660313
000280 44 dd 56 be 4a ce 30 3d 3a b8 55 3e 28 4d 71 3e
       -0.20982844 0.043165483 0.20871058 0.23564589
000290 a7 5a 45 be 28 04 01 3d fb 44 50 3d 2c 65 49 3c
       -0.19272862 0.031498104 0.050847035 0.012292188
0002a0 c1 bc 43 bd 7a 2c ce 3d 6b 82 cf bd 79 fd 13 3e
       -0.04778743 0.10067077 -0.10132297 0.14452161
0002b0 37 90 e3 bd cc aa 5f 3d 47 cf 85 3e 3e 1d 1e be
       -0.11111491 0.054606244 0.26134703 -0.15440843
0002c0 a9 a3 ed bd 25 35 27 be 10 3a 11 be 57 fd 6f 3c
       -0.11603481 -0.16328867 -0.14182305 0.014647803
0002d0 a5 3e a2 be 8f f7 1a 3e 31 bc 35 3e d9 75 94 3d
       -0.3168842 0.15133499 0.1774757 0.0724904
0002e0 45 71 9c bd af b5 f8 3d cd df 90 3e 9c ba 4d bd
       -0.07638792 0.121440284 0.28295746 -0.050226793
0002f0 6e b2 a7 be da 4b 5a 3e 0c e0 b7 bd 55 9e 25 be
       -0.3275332 0.21317998 -0.089782804 -0.1617368
000300 e3 62 35 be e2 8f 27 be 0c 20 6e 3e 47 ef 60 bd
       -0.17713504 -0.1636348 0.23254412 -0.054915693
000310 f1 91 fd bd 6a 99 42 be b1 22 a7 3e 99 96 1a be
       -0.12381352 -0.19003835 0.32643655 -0.15096511
000320 6d 84 99 3c 32 51 ac 3e 45 da 5a be cc 90 92 3e
       0.018739903 0.33655697 -0.21372326 0.28626096
000330 42 f1 3d 3e 0e 1d 44 3d 22 72 21 3e f8 5c 08 be
       0.18549064 0.04787927 0.15766194 -0.13316715
000340 44 c5 1f be 29 95 71 3e 62 fd 7b be 9b 82 39 3e
       -0.15602595 0.23592056 -0.24608377 0.18116228
000350 e6 67 86 be 7e ba 46 be 7d 28 88 3e 67 4e 23 3e
       -0.26251143 -0.19407079 0.2659339 0.15947877
000360 09 c3 26 3e 8c e2 32 be 6e 68 35 bc e4 a2 76 be
       0.16285338 -0.17469233 -0.011072261 -0.24085575
000370 96 c2 5b be c2 89 ee bd 2a 80 ec bd 5d c5 64 be
       -0.21460947 -0.11647369 -0.11547883 -0.22340913
000380 57 01 27 be e2 1e 84 bd 07 61 0e 3e 26 a9 d8 bb
       -0.16309105 -0.06451203 0.139042 -0.006611961
000390 46 13 e9 3d 4e ad b9 be 4b 1f 81 be c5 79 03 be
       0.11380629 -0.36265033 -0.25219187 -0.1283942
0003a0 dd 87 e9 3d f3 d3 6d be af d9 3d be 4a 08 fc 3d
       0.11402867 -0.23225383 -0.18540071 0.123062685
0003b0 1e 79 82 3e 16 55 ae bd 8c d1 95 3e 5c 10 39 bd
       0.2548303 -0.085123226 0.29261434 -0.045181617
0003c0 a0 bd 2f be 42 01 16 be 1a 7f 06 3e cc a8 a8 be
       -0.1716218 -0.14648917 0.13134423 -0.32941282
0003d0 3b 9c 0c 3e e1 d2 0e be 85 74 ad 3d 18 86 36 be
       0.13731472 -0.13947631 0.0846949 -0.1782459
0003e0 ae 5c 2a 3e 0e b9 3e be ef a5 4c bc 1b ea 9e 3e
       0.16636917 -0.1862528 -0.0124907335 0.31037983
0003f0 99 71 6a 3e 24 79 5a 3d c1 9d 41 3e 27 99 50 3d
       0.22894897 0.053338185 0.18907835 0.050927307

conv1.att_dst f4 [1, 4, 64]
000000 52 89 99 3d 5c ad 3d be 5f 6f 11 be c1 f1 21 bc
       0.07496895 -0.18523163 -0.14202641 -0.009884299
000010 d8 9a 82 3e 9d 2c 33 3e 84 84 6f 3e b6 c4 c8 3d
       0.2550876 0.17497487 0.23390394 0.09803145
000020 df e0 84 3e 90 fd 6e bd b6 5c 68 3e c4 96 9b bd
       0.25952813 -0.058347285 0.22691616 -0.07597116
000030 c0 5f 13 3e 4d db 63 be da 4a 9d 3d ac b8 84 bd
       0.14391994 -0.22251625 0.076802924 -0.06480536
000040 4a b5 8a 3e 2c 21 25 3e f7 e7 63 be 55 0c e6 3c
       0.27091438 0.16125935 -0.22256456 0.028082052
000050 7b 97 c0 3a ae 17 f2 bd e6 fc a0 3e e2 c2 22 be
       0.0014693582 -0.11820923 0.31442946 -0.15894654
000060 89 f5 6e 3e fc 3a 5f 3d 0b 5a 24 3d cd c5 7c 3e
       0.23335852 0.05449961 0.040124934 0.2468483
000070 bd ff 72 3c ea d0 58 3e 3b d3 3b be 68 b1 8d 3e
       0.014831481 0.21173444 -0.18342297 0.27674413
000080 7b 21 96 3e a8 9e 91 be 28 2b 8e be b1 2d 0f be
       0.2932242 -0.28441358 -0.277673 -0.13982274
000090 c7 b8 0c 3e 21 82 9f bd cb f6 87 be d9 fb 0a bd
       0.13742362 -0.07788492 -0.26555476 -0.033931587
0000a0 9e bc 48 be 80 11 ea bd 3f e5 80 3c e5 e4 11 3e
       -0.19603202 -0.11429119 0.015734313 0.14247473
0000b0 55 66 67 be e9 72 05 be ad c2 20 be ce 0a 6e 3e
       -0.2259763 -0.13032116 -0.15699263 0.23246309
0000c0 be 8b ad 3d ab 1e 89 3e 1c 9b 3f be 90 fb 22 be
       0.08473919 0.2678121 -0.18711513 -0.15916276
0000d0 45 a7 8d 3e 69 94 74 3d 58 d4 3a be 1a 09 72 be
       0.2766668 0.059711847 -0.18245065 -0.23636284
0000e0 8e b7 54 3e da 18 5a be f9 f7 20 3e 5f 80 89 3e
       0.20773146 -0.21298543 0.15719594 0.26855752
0000f0 32 fa 50 3b fa 2f 0d 3e 9c 15 ca bd 1f 86 00 be
       0.003188741 0.13787833 -0.09867403 -0.12551163
000100 4a 39 31 3d a9 92 66 3e 58 c6 09 3e e5 4c 32 3e
       0.043267526 0.22516884 0.13454568 0.17412145
000110 bc d3 2a 3d ac d4 44 be 24 8c 1c 3e 25 9b 28 3e
       0.041705832 -0.19221753 0.15287834 0.16465433
000120 76 a2 d3 bd 43 81 2f 3e 4f 6c 86 be 3b 38 cc 3d
       -0.10333721 0.17139153 -0.26254508 0.099716626
000130 dc 88 a9 3d 8b a4 c6 bd 6a 06 ca 3d d8 d4 6e 3c
       0.08278057 -0.09699353 0.09864505 0.014577113
000140 f9 0b 92 3c c9 4b 2c 3e ed 43 56 3e 66 20 81 bd
       0.017827975 0.16825785 0.20924349 -0.06305008
000150 ff 9a 8a 3d 45 59 b0 3d 78 ba 1f 3c 52 a4 60 3d
       0.067678444 0.08610777 0.009749047 0.054844208
000160 13 6f aa 3d 70 ed 63 bd 7f d7 43 be fa 24 59 be
       0.08321967 -0.05564636 -0.19125174 -0.21205512
000170 6c a0 0a 3d 89 e7 e1 3c 6c d6 d9 bc 42 4f 97 be
       0.033844396 0.027576225 -0.026591502 -0.29552656
000180 02 c2 c7 3c 10 e3 80 bd a4 46 43 be b0 44 53 be
       0.024384502 -0.06293309 -0.19069916 -0.20631671
000190 28 35 19 bc d9 0f e9 3d 8a f1 db b9 ee 8b 91 3d
       -0.009351052 0.11379976 -0.00041950896 0.071067676
0001a0 b9 41 85 3e 1e f7 df 3d f1 b2 bf bd 6b 48 57 be
       0.26026705 0.10935806 -0.09360302 -0.21023719
0001b0 b5 95 d8 3d de 0f 5e be 2b f7 82 3c 44 1c 19 bd
       0.10575429 -0.2168574 0.015987 -0.03738047
0001c0 d6 41 18 be 29 d9 57 bd 00 45 64 3b 03 a4 ab 3d
       -0.14868864 -0.052697334 0.0034831166 0.08380892
0001d0 3e 8c 30 bd d5 a4 fe bc 68 ff fb 3d f6 11 86 bd
       -0.043102495 -0.031084457 0.12304574 -0.065463945
0001e0 ed ee 2a be 49 b1 97 be 82 29 3e be 4d 33 ee 3c
       -0.16692705 -0.29627445 -0.18570521 0.029077196
0001f0 9a c7 21 be fb 91 35 3d d6 48 0b 3e 82 5d 08 be
       -0.15798798 0.04432867 0.13602003 -0.1331692
000200 84 6b e8 bd 8b c8 03 be 63 3c f9 bd 50 0d 3e be
       -0.11348632 -0.1286947 -0.12169721 -0.18559766
000210 65 b0 ad 3d 74 c5 f6 3b 72 ae 09 be 90 3e 8e 3e
       0.0848091 0.0075308625 -0.13445452 0.27782106
000220 57 b0 23 be 29 f9 7e be 63 11 94 be df 3d 2b bb
       -0.15985237 -0.24899735 -0.28919515 -0.0026129407
000230 48 f9 bb 3c 7b 9e 87 3d 57 dc 79 3e ac 06 39 bd
       0.022946015 0.066220246 0.24400459 -0.04517238
000240 fb 9c 0a bd 57 05 45 3d 77 0a 0a 3e 35 05 36 bd
       -0.033841114 0.048100796 0.13480555 -0.04443856
000250 6e 92 44 be 69 28 53 3d ca e0 42 3b 27 6b b7 bc
       -0.19196483 0.05155221 0.0029736036 -0.022389961
000260 6c d3 50 3e 48 20 0e be e3 71 19 be d9 dd 65 bd
       0.20393151 -0.13879502 -0.1498485 -0.056119774
000270 28 8a 87 3d e7 bd fd 3d 14 8f 69 be 42 e4 81 3e
       0.06618148 0.123897366 -0.22808486 0.2536946
000280 ad 96 5f 3d db 3a fc bd d3 5d 49 bc bb bb 8a 3e
       0.054587055 -0.12315913 -0.012290436 0.27096352
000290 dc 44 7a be f0 f5 f1 bd 94 e8 05 3e a0 0b 7c bd
       -0.2444033 -0.11814487 0.13077003 -0.061534524
0002a0 8f 67 f2 3c b0 23 3f be 67 81 a2 3d 34 1b 93 be
       0.029590396 -0.18665957 0.07934838 -0.28731692
0002b0 9b 76 e8 3d cf 68 a6 bc 0e f4 18 3e 2d 2a 25 3e
       0.11350747 -0.020313649 0.1493685 0.1612937
0002c0 83 05 5f bd c9 9b 52 3e 3b 00 91 3e 9d 9f 1c 3e
       -0.054448616 0.2056724 0.28320488 0.15295263
0002d0 25 e7 02 be 27 47 d7 3c 5e de 03 3e 74 79 26 be
       -0.12783487 0.026279045 0.12877795 -0.16257268
0002e0 bd 7c 4a be c3 9c cd 3c 82 27 3d 3e bd 89 1b 3e
       -0.19774146 0.025099164 0.18472102 0.15189262
0002f0 f2 5b 03 3c 1b bc 02 be f0 14 e3 3d a8 2c 0c be
       0.008017527 -0.12767069 0.11087978 -0.1368891
000300 48 38 8d 3d f8 af 8c be ba 3c a3 3d f7 23 cf 37
       0.068955004 -0.27478004 0.07970567 2.469307e-05
000310 87 a6 11 be e9 82 50 3e 49 3e 9e 3e 6b 2d 8a be
       -0.14223681 0.20362438 0.30906895 -0.26987776
000320 b4 23 a6 be e1 fd 29 be a6 59 ac 3e e9 0e 0d bc
       -0.32449114 -0.16600753 0.33662146 -0.008609512
000330 b0 c8 59 be 49 d6 50 be b7 08 9f bd 86 b4 89 3e
       -0.21267962 -0.20394243 -0.07765334 0.2689554
000340 02 6d 1d be 6a f4 0d be 1f 0c 1e bc 4b cc cf bd
       -0.15373614 -0.13862768 -0.009646445 -0.10146388
000350 05 39 e8 3d 43 a9 54 be 43 5d b2 3d 74 74 8c 3d
       0.113390006 -0.20767693 0.087091945 0.06858149
000360 ae a0 9d 3b ef f7 08 bb 04 57 8e 3e d0 b2 72 3d
       0.0048104143 -0.0020899733 0.27800763 0.05925256
000370 f3 6e 84 be 98 0d 8f 3e ec 54 33 bd 2b f4 e2 3d
       -0.25865898 0.2794006 -0.04378216 0.110817276
000380 7a ac d7 bb 68 7d cb bc 06 41 ac be a3 7c f8 3d
       -0.00658184 -0.024840072 -0.3364336 0.121331476
000390 ab 45 d9 bc c8 38 ee bd b3 bc 6a be cb 79 8d be
       -0.026522478 -0.11631924 -0.22923546 -0.27631983
0003a0 68 4b f2 bd c2 a1 53 3e 67 f0 22 3d 2a 86 71 be
       -0.11830789 0.20667174 0.039780047 -0.23586336
0003b0 5d 37 5e 3e 63 e9 ae bd ba 27 32 be 7e 6b 84 bc
       0.21700807 -0.08540609 -0.17397967 -0.016164538
0003c0 3a 76 03 be e2 a6 f6 bd a8 56 43 3e c4 03 90 bc
       -0.12838069 -0.12043549 0.19076025 -0.01757992
0003d0 69 ac d6 bd b7 80 33 3e d0 b2 03 bd f3 4d 22 3e
       -0.104821034 0.1752957 -0.03215295 0.15850048
0003e0 51 92 f8 3d b2 4b ec bd 40 e3 89 be ee d7 91 be
       0.12137283 -0.11537875 -0.2693119 -0.28485054
0003f0 ad bf 87 be 21 8a 60 3e b2 b9 c7 3d d1 83 b6 bd
       -0.26513425 0.21927692 0.097522154 -0.08911861

conv1.bias f4 [256]
000000 5d 52 1d bd 01 35 60 3d 32 b4 28 bd cd cf 62 bd
       -0.038408626 0.05473805 -0.041187473 -0.055373956
000010 6d c0 63 bd 36 93 5a 3d 33 c0 55 3d c1 2e 5f 3d
       -0.055603433 0.053363048 0.05218525 0.054487947
000020 71 b2 60 3d a8 4a 5e bd e6 aa 3d 3d 46 df 54 3d
       0.054857675 -0.054270416 0.04630556 0.051970743
000030 cd 29 61 bd 71 5b 61 bd eb 5e 63 bd 6c d7 57 bd
       -0.054971505 -0.055018846 -0.055510443 -0.052695677
000040 2d c3 60 3d 77 b4 65 bd b4 7e 54 bd 9e 75 5d 3d
       0.054873634 -0.056080308 -0.051878646 0.054067247
000050 f5 7d 5b bd 5d 03 31 3d c7 00 2a 3d 2c 09 5c bd
       -0.05358692 0.043216098 0.041504648 -0.053719684
000060 29 aa 5d 3d d0 4c 34 3d 0e 25 59 3d 23 4a 63 bd
       0.054117355 0.044018567 0.053013854 -0.055490624
000070 da dd 32 bd f9 62 2d bd b3 6e 2c 3d a2 26 30 3d
       -0.043668605 -0.042330716 0.04209776 0.043005593
000080 ab e4 5f 3d 63 c7 20 bd 03 42 63 bd b9 fe 3a 3d
       0.054661434 -0.03925265 -0.055482876 0.04565308
000090 53 7b 61 bd 65 c5 2a 3d d2 54 5e 3d f7 69 5d bd
       -0.05504925 0.041692156 0.05428011 -0.054056134
0000a0 00 01 60 3d c8 6d 5d 3d df e8 44 3d ad 03 62 bd
       0.054688454 0.054059774 0.048073646 -0.055179287
0000b0 34 7b 60 bd a5 d7 60 3d 6a b8 43 3d f1 ad 61 bd
       -0.054804996 0.054893155 0.047783293 -0.055097524
0000c0 90 82 5d 3d b8 99 43 3d 14 e9 60 3d 91 eb 62 bd
       0.054079592 0.04775402 0.05490978 -0.055400435
0000d0 a0 5c 11 bd ed be 2e 3d 53 0a 4c 3d 9d c1 61 bd
       -0.035488725 0.04266255 0.049814533 -0.055116285
0000e0 f0 8c 36 bd dc 65 41 3d 11 6e 62 bd ca 2a 5f 3d
       -0.044568002 0.04721628 -0.05528075 0.054484166
0000f0 98 2a 58 3d 12 be 46 3d 43 52 53 3d 6f 16 f5 bc
       0.052774996 0.04852111 0.051592123 -0.029917924
000100 46 e9 60 bd 55 c3 53 3d 12 d0 39 3d 46 89 5d 3d
       -0.054909967 0.051699955 0.045364447 0.054085992
000110 e1 b5 29 bd 3b c3 4d 3d 0a 4b 65 bd 1c ca 5c 3d
       -0.04143322 0.050235014 -0.055979766 0.053903684
000120 b8 f2 03 3d 59 c7 5c 3d 57 80 5d 3d 28 40 1e 3d
       0.032213897 0.05390105 0.054077473 0.038635403
000130 cf 0e 4c 3d fc 88 2b 3d 7a 10 60 3d c0 bb 60 bd
       0.04981881 0.041878685 0.054703213 -0.054866552
000140 9b 01 66 bd 7a 24 5f 3d 97 77 54 3d 3f ff 62 bd
       -0.056153875 0.054478146 0.051871862 -0.055419203
000150 bd 24 54 3d 3a 9c 5d 3d a7 64 55 3d ac 03 5f bd
       0.05179285 0.054104067 0.052097943 -0.05444686
000160 0e c6 63 bd 1b 10 47 bd cb e1 5d 3d e6 77 5b 3d
       -0.0556088 -0.048599344 0.05417041 0.05358114
000170 7a 25 27 3d 13 3a 62 3d e9 03 58 bd 03 6c 4c bd
       0.040807225 0.055231165 -0.052738104 -0.049907696
000180 f4 c0 3a bd 37 f2 5e 3d 24 a4 64 bd d5 e2 60 bd
       -0.04559417 0.054430213 -0.0558206 -0.054903824
000190 46 dd 60 3d 4b ab 04 3d 56 41 2e bd 4e bd 5d bd
       0.054898523 0.03238992 -0.042542778 -0.054135613
0001a0 1d ba 47 3d 58 64 63 3d 00 b3 48 bd 21 20 34 bd
       0.048761476 0.055515617 -0.048998833 -0.043975953
0001b0 aa 02 5f 3d 94 ac 5d 3d 53 8e 5f 3d 8b d8 5f bd
       0.0544459 0.05411966 0.05457909 -0.05464987
0001c0 1f 48 17 3d d1 2d 5f 3d 51 81 5d 3d b3 5e 21 bd
       0.036934014 0.054487053 0.054078404 -0.039396953
0001d0 6d 9e 60 3d 40 84 5f 3d a9 47 4b 3d 05 f5 35 bd
       0.054838587 0.054569483 0.049628887 -0.044423122
0001e0 94 79 4a bd 3b c0 5f bd 51 f8 55 3d 3f dd 38 3d
       -0.049432352 -0.054626685 0.052238766 0.04513287
0001f0 1a cb 5b 3d 8b e8 5d 3d 08 e4 47 3d 26 bc ba 3c
       0.05366049 0.05417685 0.048801452 0.022794794
000200 60 3f 5f bd a4 d5 60 3d 7c f0 62 bd 19 f1 5e 3d
       -0.0545038 0.054891244 -0.055405125 0.054429147
000210 7f e3 5d 3d db 03 5d 3d 19 07 32 3d 0c d2 5d 3d
       0.054172035 0.053958755 0.0434638 0.054155394
000220 f5 af 62 bd ed 74 60 3c 07 a7 4b bd 17 41 5e 3d
       -0.055343587 0.013699752 -0.049719837 0.054261293
000230 44 27 58 3d e2 aa 41 3d b3 f3 57 3d 47 fc 61 bd
       0.05277182 0.047282107 0.052722644 -0.05517223
000240 ed df 05 3d 88 72 3e bd 7f e8 5f bd 00 39 62 bd
       0.032684255 -0.046495944 -0.054665085 -0.05523014
000250 7e bb 65 bd dc fd 2d bd b6 01 5f bd 07 1d 24 3d
       -0.05608701 -0.042478427 -0.05444499 0.040066745
000260 6a 4f 62 3d 97 51 62 bd 0a 2a 61 bd 6b 2c 22 3d
       0.055251516 -0.05525359 -0.054971732 0.03959314
000270 b0 ec 44 3d 6d af 5f 3d 87 f6 5b 3d 6d 99 4c bd
       0.048077285 0.05461066 0.053701904 -0.049951006
000280 c7 a1 4e bd f5 6d 60 3d e0 5a 3c bd 3e 43 24 3d
       -0.05044725 0.054792363 -0.045985103 0.04010319
000290 a9 93 2f 3d 48 3a 4b bd 77 c5 62 bd 7c a5 60 3d
       0.04286543 -0.04961613 -0.0553641 0.05484532
0002a0 a4 34 64 bd 83 6c 15 3d 36 b7 3b 3d 49 90 5f bd
       -0.055714265 0.036480438 0.04582902 -0.05458096
0002b0 0c fc 60 bd d7 30 61 bd a4 18 43 3d ed 87 5f bd
       -0.05492787 -0.054978218 0.04763092 -0.05457299
0002c0 50 0a 0c 3d a5 ca 5d 3d ff 54 5a 3d c0 72 5e bd
       0.034189522 0.054148335 0.053303715 -0.054308653
0002d0 e2 7b 60 bd 44 ce 3d 3d a2 3e 53 bd 1f 35 60 bd
       -0.054805644 0.04633929 -0.051573403 -0.05473816
0002e0 eb 8d 61 bd ea 21 09 3d 65 d4 51 bd 37 20 41 bd
       -0.055066984 0.03347961 -0.051227946 -0.047149863
0002f0 5a 3d 3f 3d f8 31 62 bd c4 cc 17 3d 4e 6f 4b 3d
       0.04668937 -0.055223435 0.037060514 0.049666695
000300 2f 8b 5d 3d 5b 1f 61 bd db d0 53 3d 7f 76 5e bd
       0.054087814 -0.054961544 0.051712852 -0.054312225
000310 67 90 21 3d df ef 61 3d b0 24 41 3d 5a ff 43 3d
       0.039444353 0.0551604 0.04715413 0.047850944
000320 bf 24 61 bd cf 69 5c 3d 99 09 57 3d 51 91 e3 bc
       -0.054966684 0.053811844 0.052499387 -0.027779253
000330 e4 8a 61 bd e1 d2 5f bd 06 30 4d bd df 31 5e 3d
       -0.055064097 -0.05464447 -0.050094627 0.05424678
000340 74 0a 3f 3d c0 6f 58 3d a8 2f 48 bd cf 01 56 bd
       0.04664083 0.052840948 -0.048873574 -0.05224782
000350 98 04 36 bd af c2 5c 3d 90 35 48 bd 5b b7 52 bd
       -0.044437975 0.053896602 -0.048879206 -0.051444393
000360 68 3c 5e 3d 26 62 5e 3d 4e 26 5b 3d 9a 31 5f 3d
       0.054256827 0.05429282 0.053503327 0.054490663
000370 82 05 63 bd 22 28 5a 3d b0 56 01 3d 07 0a 5f 3d
       -0.055425175 0.05326093 0.031576812 0.054452922
000380 0d 68 5a 3d 8f 72 5d 3d 79 13 61 bd 24 bc 37 bd
       0.053321887 0.05406433 -0.05495021 -0.04485716
000390 26 18 4f bd 06 3c 24 bd e6 8d 61 bd cf 00 60 bd
       -0.05056014 -0.040096305 -0.055066966 -0.05468827
0003a0 4b 8d 51 3d f0 f1 11 3d 9f f3 06 3d 82 91 51 bd
       0.051160138 0.03563112 0.03294718 -0.051164158
0003b0 5b f8 ed 3c 97 de 5c 3d 39 2e 4e 3d d8 f9 5f 3d
       0.02904909 0.053923216 0.05033705 0.05468163
0003c0 a2 1e 35 3d b2 ae 5b 3d 40 05 61 bd e0 3c 27 bd
       0.044218667 0.0536334 -0.054936647 -0.04082954
0003d0 ad 11 5f 3d f0 ea ec 3c fe 3d 5b bd c6 73 5c 3d
       0.054460216 0.02892062 -0.053525917 0.053821348
0003e0 8c ec e6 bb 76 21 57 bd cc 25 60 bd 25 a8 16 bd
       -0.0070472416 -0.052522145 -0.054723546 -0.03678145
0003f0 57 77 5e bd 4b b8 56 3d 0a 1a 52 3d 4d bb 4f bd
       -0.05431303 0.05242185 0.051294364 -0.050715733

conv1.lin.weight f4 [256, 605]
000000 26 86 76 3d 02 2a 98 bd 5a a1 68 3c b5 6d db bc
       0.060186528 -0.07429887 0.014198625 -0.02678571
000010 9b 1d 29 3d 4b 91 9b bc 4a 7b 2c 3d f7 83 24 bd
       0.041288 -0.01899018 0.042109765 -0.040164914
000020 fb 4e b6 bc c4 73 bf bc 77 9b ca bc fd 93 c4 bc
       -0.022254458 -0.023370631 -0.024732335 -0.023996348
000030 ac 72 16 bc b1 a5 a1 bc f8 d4 ac bc 31 77 97 bb
       -0.009182613 -0.019732328 -0.021097645 -0.004622363
000040 71 e1 50 bc 08 46 8c bc 00 65 9a bb 3b 87 e8 3c
       -0.012749062 -0.017123237 -0.004711747 0.028384795
000050 dc ac b4 bc 43 9e 0c bd 07 b7 84 3c 18 2f 13 bd
       -0.022055082 -0.034330618 0.016200555 -0.035933584
000060 0f ec 61 3c d8 a2 08 bd 44 e8 95 bc 01 67 b3 bc
       0.013789191 -0.033358425 -0.01829923 -0.021899702
000070 94 0e c1 bc dd 5f ab bc 87 82 a3 bc c2 99 c3 bc
       -0.023566522 -0.020919735 -0.019959701 -0.023877028
000080 c1 b7 99 bc 14 97 95 bc ac b6 dc bc ad 6c 9e bc
       -0.018764379 -0.018260516 -0.026942573 -0.01933893
000090 45 a9 2d bd 1f 95 85 bb f0 fd b5 bc 8e 91 28 bc
       -0.042397756 -0.0040766145 -0.022215813 -0.010288609
0000a0 c4 f0 e2 bc f9 bd 5d bc 77 8d 84 bc 79 19 e0 bc
       -0.027702697 -0.013534063 -0.016180737 -0.027355896
0000b0 fa b6 26 bd 24 f4 6e bc 68 20 9f bc 77 f3 d8 bc
       -0.040701844 -0.014584575 -0.019424632 -0.02648328
0000c0 b8 f1 9f bc f6 d1 40 bc 43 30 0e bd 3c db f9 bb
       -0.01952444 -0.011768809 -0.034713995 -0.0076250117
0000d0 33 09 d9 bc 64 01 9c bc cb dc 85 3a 39 2e 23 bd
       -0.026493644 -0.019043632 0.0010212896 -0.039839003
0000e0 62 ea 95 bc 7f 47 b4 bc 3e e7 58 bd 87 c1 84 bc
       -0.018300239 -0.022006748 -0.052954905 -0.016205562
0000f0 aa d8 7a b9 e1 90 b0 bc c2 2a c8 3c d2 62 07 bd
       -0.00023922572 -0.021553459 0.024434451 -0.033053227
000100 e9 ac 9c bc 82 4d a9 bc d4 a4 9b bc 2a fa 22 3d
       -0.019125419 -0.020666841 -0.018999495 0.039789356
000110 eb f0 82 bc 24 a4 a2 bc ee 93 24 3d 87 2a dd bc
       -0.01598402 -0.019853659 0.04018014 -0.026997818
000120 0e ca 96 3c 6b ea b1 bb a1 b8 c5 bc be b7 8f bc
       0.018406894 -0.005429556 -0.02413589 -0.01754367
000130 f0 1f a8 bc 3f f0 80 bc 5d bc 41 3c 46 bb c7 bc
       -0.020523041 -0.015739558 0.011824694 -0.024381291
000140 16 fb 64 bc c1 90 b1 bc b6 aa 01 bd b8 a4 97 bc
       -0.013975879 -0.02167547 -0.031656943 -0.018511161
000150 b5 0d b8 bc 68 18 8d bc 2b 94 d1 bc 09 1b 0c bc
       -0.022467474 -0.017223552 -0.025583347 -0.008551368
000160 7a 71 c6 bc 5b 73 b3 bc a2 cc 8f bd 1e e2 66 bc
       -0.024224032 -0.021905592 -0.070214525 -0.0140919965
000170 56 0c 42 bc 0b 9a 32 bd 3c 1b 70 bc ce 33 5b bd
       -0.011843761 -0.043603938 -0.014654931 -0.0535162
000180 c1 c1 77 bc ce df ae bc 32 3d c9 bc eb 46 0d bd
       -0.015121878 -0.021346953 -0.024565313 -0.03449146
000190 02 4a 89 bc 3d 34 9c bc 9c 0c 03 3d c8 62 82 bc
       -0.016758922 -0.019067878 0.031994447 -0.015916243
0001a0 f9 4d ad bc 3c 32 81 bc 0b 35 88 bc 94 df 08 bd
       -0.021155344 -0.015771024 -0.016626855 -0.033416346
0001b0 fe 23 e5 bc d7 7a 7e bc 55 17 62 bc a8 21 87 bc
       -0.027971264 -0.015532217 -0.013799508 -0.01649554
0001c0 01 d8 aa bc d6 55 a6 bc fb 8f a3 bc ea 8f e9 bb
       -0.020854952 -0.020304602 -0.019966116 -0.0071277516
0001d0 fb b1 3a bd cf 11 c7 bc 54 9f d6 bc 21 c9 87 bd
       -0.04557989 -0.024300484 -0.02619902 -0.06630159
0001e0 41 0e a7 bc 2e 94 7a bc 3e 60 aa bc 4e ed da bc
       -0.020392539 -0.015294118 -0.020797845 -0.026724484
0001f0 30 b3 e6 bc e8 4f 9a bb d7 7b a0 bc 63 74 50 bc
       -0.028161615 -0.0047092326 -0.019590301 -0.012723061
000200 b4 ee 0e bc ce 37 82 bc b7 b3 a6 bc 61 2c 84 bc
       -0.008723903 -0.01589575 -0.020349367 -0.016134443
000210 ed d5 ad bc 6c fe ef ba 2c f8 62 bc dc e8 17 bd
       -0.021220172 -0.0018310077 -0.013853114 -0.037087306
000220 fe 39 ba bc 98 dc 95 bc 35 5b 6c bc b4 ff e5 bc
       -0.022732731 -0.018293664 -0.014426042 -0.02807603
000230 24 aa c1 bc 4c 71 8f bc e8 4b 36 bd 71 44 d6 bd
       -0.0236407 -0.017510079 -0.044505984 -0.10462273
000240 89 ca 35 3b ff aa cd bc 53 20 d3 bc 3b 79 02 bd
       0.0027739129 -0.025105951 -0.02577225 -0.031853896
000250 fa 0a b0 bd e8 91 d3 bc c4 b3 94 bc 27 09 a7 bc
       -0.085958436 -0.02582641 -0.018152125 -0.020390106
000260 f2 d9 32 bd d6 ef a3 bc af 41 25 bd 05 5f c5 bc
       -0.04366488 -0.020011824 -0.040345844 -0.02409316
000270 6e 3a b8 bc d9 a3 53 bc 81 0a c2 bb 39 ed 71 bc
       -0.022488799 -0.012917482 -0.0059216623 -0.014766031
000280 62 25 05 bd 25 62 16 bd 43 37 93 bc 33 d0 ec bb
       -0.032506354 -0.03671469 -0.017970687 -0.0072269677
000290 cc 68 a5 bc ba 6d 64 bc f5 1e 14 3d 90 a5 0e bd
       -0.020191573 -0.0139421765 0.036162335 -0.03482586
0002a0 b9 c0 b0 bc 09 2e 90 bc 77 aa c0 bc f5 c8 20 bc
       -0.021576272 -0.017600076 -0.023518784 -0.009813537
0002b0 26 63 95 bc 33 43 95 b7 9d 42 19 bd 27 b4 9f 3c
       -0.018235754 -1.7793476e-05 -0.037417043 0.019495083
0002c0 fe de 34 bd 1c 04 30 bd 90 95 b1 3a ec 57 8f bc
       -0.044157974 -0.04297267 0.0013548601 -0.01749798
0002d0 9f bd b9 bc 99 f9 8a bc 0c e2 4b bd 32 cd a4 bc
       -0.022673426 -0.01696472 -0.049776122 -0.020117376
0002e0 a9 22 f1 bc fd 8f 8b bc 6e 64 85 bc 11 96 ec 3c
       -0.029435473 -0.017036432 -0.01628324 0.028880151
0002f0 a8 10 13 bd 2e fd 26 bc 1a ce a2 bc a0 43 4a bd
       -0.035904557 -0.010192199 -0.019873668 -0.0493809
000300 08 f3 9b bc 82 40 9c bc 7a 2f 9d 3c a9 51 a5 bc
       -0.019036785 -0.019073728 0.019187678 -0.02018054
000310 89 43 c4 bc 9c fc 24 bc 79 4d 88 bd df 6b 94 bc
       -0.023957985 -0.010069992 -0.06655402 -0.018117843
000320 da 24 91 bc f1 1d d9 bb 8f 8b 89 bc a8 b6 08 3c
       -0.017717768 -0.0066258837 -0.01679018 0.00834433
000330 b6 d7 b6 bc df 3c 9b bc e0 84 7d bc 2e 01 b8 bc
       -0.022319656 -0.018949924 -0.015473574 -0.0224615
000340 35 9e ba bc 38 d7 48 bb e3 bc 97 bc 64 fd 4c bc
       -0.022780517 -0.0030645858 -0.018522685 -0.012511585
000350 ae 6f a5 bc 19 81 99 bc 7d cc 99 bc ea 83 e8 bc
       -0.020194855 -0.018738316 -0.018774265 -0.028383214
000360 34 83 7b bb d2 73 22 bd 73 f8 df ba 39 e8 93 bc
       -0.0038377764 -0.039661236 -0.0017087593 -0.018055068
000370 66 d9 b4 bc 68 67 c1 bb ef fb 63 3c 94 7c 61 bd
       -0.02207632 -0.0059022196 0.013915046 -0.055050448
000380 a6 d2 a6 bc 75 9b a3 bc 65 ec 78 3c 92 ec 13 bc
       -0.020364117 -0.019971589 0.01519308 -0.009028571
000390 a3 24 6d bc 0a c0 38 bd f2 56 a9 bc e4 9a 06 bd
       -0.014474067 -0.045105018 -0.020671342 -0.03286256
0003a0 86 67 b0 bc 26 3b 98 bd 21 83 8a bb 8a 75 b5 bc
       -0.021533739 -0.07433157 -0.0042270576 -0.022150774
0003b0 76 6c 02 bc 6b c0 84 bc fa 99 07 3d 4f 9c a2 bc
       -0.007960429 -0.016205033 0.033105828 -0.019849924
0003c0 ed fa ac bc d3 68 b7 bc 18 d2 52 bc a6 f9 db bc
       -0.021115744 -0.022388851 -0.012867473 -0.02685244
0003d0 d9 40 a9 bc 8a 03 b2 bc 03 70 8b bc 4b 37 f9 3c
       -0.020660805 -0.021730203 -0.017021185 0.030421874
0003e0 6b d5 3c bc 13 5d a5 bc cc 66 38 bd 4a 49 bb bc
       -0.011525492 -0.020185983 -0.04501991 -0.022862095
0003f0 96 a3 88 bd c6 54 be bc bf 38 80 3b 74 e4 9f bc
       -0.066718265 -0.023233783 0.0039130147 -0.019518115

conv2.att_src f4 [1, 4, 64]
000000 00 2a 78 bd 25 3e f5 3d ff 9b 45 be ab 5f 41 3d
       -0.06058693 0.11974744 -0.19297789 0.047210377
000010 ad 8a 5c be 1a b7 0d be d0 ab 9e 3e 07 cc 65 3e
       -0.21537276 -0.13839379 0.30990458 0.22441112
000020 bf e4 f0 3d 32 b2 20 be 24 12 60 be 26 11 34 3d
       0.1176238 -0.15692976 -0.2188192 0.043961667
000030 4f ac 33 be 23 be 74 39 36 2e 1d be 30 c0 d3 bd
       -0.175462 0.00023340485 -0.1534966 -0.10339391
000040 61 43 94 be ac 46 67 3e 29 80 32 3e 9d 12 73 3e
       -0.28957656 0.22585553 0.17431702 0.23737569
000050 24 3b da 3d bb 92 9f 3d 04 1a 58 3e ff 80 61 bd
       0.106558114 0.077916585 0.21103674 -0.05505466
000060 26 52 a7 3d f7 05 cc bd 60 ef 1d bd 79 24 54 bb
       0.081699654 -0.09962075 -0.038558364 -0.0032370372
000070 5c 9e 30 be 69 1b 64 3e e8 0c 3f 3e 62 c5 0a bd
       -0.1724791 0.22276081 0.18657267 -0.033879645
000080 83 9e 53 be 59 90 92 be f5 ff 99 3e d7 03 c7 bc
       -0.20665936 -0.28625754 0.30078092 -0.024293823
000090 68 71 ae 3d 51 4b 8f 3e e4 bb 6e 3e 19 0b 08 be
       0.08517724 0.2798715 0.23313862 -0.13285483
0000a0 94 ee 86 be 19 08 62 3e 3b 1c 8b be 25 00 0d be
       -0.26353896 0.22073402 -0.27169976 -0.13769586
0000b0 8a 2b 51 3e 7c d9 77 bd c7 f8 15 bd c0 69 1c be
       0.20426765 -0.060510144 -0.036614206 -0.15274715
0000c0 30 bf d0 bd 0b 17 73 be 25 89 e5 bc 25 8b 59 3b
       -0.10192716 -0.23739259 -0.028019497 0.003319451
0000d0 fc b5 90 bd a7 97 18 3e cb 6e f7 bb 53 3c 8b be
       -0.07065961 0.14901601 -0.0075510493 -0.2719446
0000e0 6f c2 0a 3e a6 5b 32 3d 7e 3e 9f be 72 f5 1e be
       0.13550733 0.043544434 -0.31102365 -0.15523317
0000f0 56 4c a3 bd f7 98 93 3b 46 e3 df 3d 78 30 66 3e
       -0.07973544 0.004504319 0.10932021 0.22479427
000100 75 88 33 be 7d a9 16 3e 91 64 de bd 16 f3 9b bd
       -0.17532523 0.14713092 -0.10859025 -0.07614724
000110 c8 31 30 3e 84 13 5f 3c c5 3c 5e be 3c 48 a6 3e
       0.1720649 0.013615493 -0.21702869 0.32476985
000120 fe 31 61 3e f5 6b 17 3e fc 6f b7 bd a6 a0 5e 3d
       0.21991727 0.14787276 -0.08956906 0.054352425
000130 0d b6 81 3e e9 22 87 be a5 91 1e be 7b 74 b2 bd
       0.25334206 -0.26393822 -0.15485246 -0.08713623
000140 fe 59 8e 3d 5f 68 5e be fb bb b5 3d 05 21 26 3d
       0.069507584 -0.21719502 0.08873745 0.040558834
000150 45 57 70 be 1f b7 31 3e 4e 5f e4 3d 21 2c e3 bd
       -0.2347079 0.17355011 0.111509904 -0.11092401
000160 35 b6 2d 3e 35 8a 70 3e 2f a7 d2 bc 3e 54 88 3e
       0.16964038 0.23490222 -0.025714485 0.26626772
000170 a6 8c ab bc ad 10 a9 3e f4 32 13 be 1d d2 a2 3e
       -0.02094109 0.33020535 -0.14374906 0.3180093
000180 fd 61 79 bd 4a 85 cf 3d bd e9 11 be a1 91 9e be
       -0.060884465 0.10132845 -0.1424932 -0.3097048
000190 ac 17 40 3d 56 03 10 3d 1c 6f 29 be db 68 54 be
       0.046897575 0.03515943 -0.16546291 -0.20743124
0001a0 94 30 ba bd 45 81 f0 bd df bf d9 bc 9c ff ad bd
       -0.09091297 -0.11743406 -0.02658075 -0.08496019
0001b0 51 21 3b bd fa 07 7f be 66 80 5e be 47 28 ef 3d
       -0.04568607 -0.24905387 -0.21728668 0.11677604
0001c0 b1 09 07 be 35 4e 85 3c e3 c8 78 be 11 03 41 3e
       -0.1318729 0.016272644 -0.24295382 0.18848826
0001d0 5e e2 a0 be 0a 10 b4 3d de f6 4f 3e f0 38 21 3e
       -0.31422704 0.08792122 0.20309016 0.15744376
0001e0 8e bf a3 3d bc c6 25 3e 63 fe 05 be 18 01 1e be
       0.079955205 0.16189092 -0.13085322 -0.15430105
0001f0 15 b0 de bd f8 ef 94 3d a2 55 8e be 02 ea 19 3e
       -0.10873429 0.07272333 -0.27799708 0.15030673
000200 6e 89 6a 3e 81 17 fe 3d 96 91 8d 3b 7b 8f 28 be
       0.22903988 0.12406827 0.0043203337 -0.16460983
000210 77 dd 59 3e b4 fe dd bd 62 c5 ef bc c6 95 32 3e
       0.21275888 -0.108395964 -0.029268924 0.17439947
000220 fa 95 89 3e 63 85 1f be 5e 0c d8 bc 5e b6 52 3e
       0.26872236 -0.15578227 -0.026373085 0.2057738
000230 18 b6 02 3d e5 01 11 3e 8f be 2c be 3d be 15 3e
       0.03191194 0.14160879 -0.16869567 0.14623351
000240 86 fe 93 3e c1 cd a8 be 6b a2 7e be f1 26 28 be
       0.28905123 -0.32969478 -0.24866645 -0.16421105
000250 ca 60 15 be 73 2e 91 3e 5c 49 7d 3e 92 99 59 be
       -0.14587703 0.2835575 0.24735016 -0.21249989
000260 22 90 99 3c b3 49 8b bc 6e eb 82 be ec d4 78 be
       0.018745486 -0.017002916 -0.25570244 -0.24299973
000270 29 fd 8f be 21 d8 81 3e e8 19 93 3d 06 ff 37 be
       -0.28122833 0.25360206 0.071826756 -0.17968377
000280 49 37 30 3e 12 2b 7a 3e 90 f8 78 3e 61 71 35 3e
       0.1720859 0.24430493 0.24313569 0.17719032
000290 e8 d2 d3 3d b4 e3 bc 3d 71 b1 02 bd d7 d1 a3 3d
       0.103429615 0.092231184 -0.031907503 0.07999008
0002a0 a0 d1 4c be 84 23 fe bc 8b 6d d6 3d 4d 09 1b 3d
       -0.2000184 -0.031022795 0.104701124 0.037850667
0002b0 ee 58 58 3d 08 2a 75 be 0f 3a 41 3b a0 69 a0 be
       0.052819185 -0.23941815 0.0029484069 -0.31330585
0002c0 40 93 e5 3c f5 47 6f 3e 12 83 bc bd 8a 0f 1c 3c
       0.028024316 0.23367293 -0.09204687 0.009525189
0002d0 b5 2f 35 bc 2b eb 63 3d 1d b2 6b be 18 bf 5a be
       -0.0110587375 0.055644196 -0.23017164 -0.21361959
0002e0 5f 72 51 3e bb 11 72 bd a9 df f6 bd 5a 18 ac 3e
       0.20453785 -0.05909894 -0.120543785 0.3361233
0002f0 79 f2 bf bd fe 65 75 3d 7e fc c0 3c d7 5b 9a 3e
       -0.0937242 0.05991172 0.023557898 0.30148193
000300 c8 31 0d bc 39 e7 7f be 6b 46 f6 bd 17 43 61 be
       -0.008617826 -0.24990548 -0.1202515 -0.21998249
000310 17 c5 a8 be d6 35 6f 3e d8 f9 74 3e 09 25 c2 bc
       -0.32962868 0.2336038 0.23923433 -0.0236993
000320 47 82 50 3e 2b f9 d1 bd 8e 6f 15 be 6f e6 8d 3e
       0.20362197 -0.10252603 -0.14593336 0.2771487
000330 19 31 45 3e 73 79 a2 3e 3c 19 3b be f9 d9 82 3e
       0.1925701 0.31733283 -0.18271345 0.25556925
000340 44 27 53 3e df 33 79 bc b6 b4 70 3d b0 66 3d 3e
       0.20620447 -0.015210121 0.05876609 0.18496203
000350 a2 ce ae be e8 34 6d be af 66 82 bd b2 53 39 3e
       -0.34142023 -0.23164713 -0.063672416 0.18098333
000360 92 e6 28 3e 66 f8 49 be 5a ab 2c 3e 2d 0a 74 3d
       0.16494206 -0.19723663 0.1686224 0.059580017
000370 7e ad b6 3d d6 57 01 be fc 1c 04 be 63 1c 05 3e
       0.0891981 -0.12631163 -0.12901682 0.1299911
000380 f5 28 63 be 4a b7 9f bd 84 1e 41 be 80 86 84 3e
       -0.22183593 -0.077986315 -0.18859297 0.25883865
000390 7c 39 de bc 29 c1 00 3d 26 ad 0b 3e 98 40 77 3c
       -0.02712702 0.031434212 0.1364027 0.015091084
0003a0 1c bd 61 be ab f0 fa bd 8c 3e 04 3d 12 3e 7f 3e
       -0.22044796 -0.12252935 0.03228621 0.24926022
0003b0 7a 89 03 3e fb 4f e6 bd 9a e3 0b bd 4a 6f 3b be
       0.12845412 -0.11245724 -0.034152605 -0.18304172
0003c0 34 7d 52 3e ab c2 2a 3e 65 98 2d 3e 4f 29 e3 3d
       0.20555574 0.16675822 0.16952665 0.11091863
0003d0 3a 4c 87 be 49 bf e7 bd 62 07 31 3c c1 62 70 3d
       -0.26425344 -0.113157816 0.010804983 0.05868793
0003e0 67 fa c0 3d e0 5d 60 be 86 e9 87 3d 8e 0c 8c 3e
       0.094227605 -0.2191081 0.06636338 0.27353328
0003f0 61 f0 03 be b2 67 c3 bc ce a1 bb bd 94 e1 8f be
       -0.12884666 -0.023853157 -0.09161721 -0.2810179

conv2.att_dst f4 [1, 4, 64]
000000 cf cc f6 3c b8 8b 23 bd d1 bb af bd 1d 9e b4 bd
       0.030126957 -0.039928168 -0.08580745 -0.0881922
000010 04 06 01 be 00 c9 6a bd e2 a3 0a 3e 64 fc 81 bb
       -0.12599951 -0.057320595 0.13539079 -0.003966855
000020 39 05 cf 3d f0 4c 73 bd 94 f8 af 3d af 95 d6 3d
       0.10108418 -0.059399545 0.085923344 0.10477769
000030 9e 28 2d 3d 34 3a 08 3e a9 a6 0c 3c 6d f0 c7 3c
       0.042275064 0.13303453 0.008584657 0.024406636
000040 65 35 b2 3d fd 47 fd 3d 3b 42 64 bd ff c9 87 3c
       0.087015904 0.12367246 -0.055727225 0.016575811
000050 38 99 58 bd 9f 6a 92 bd 7a be 10 3e 9e 09 83 bd
       -0.052880496 -0.071492426 0.14135161 -0.06398319
000060 8a 3f 9c bd d9 01 00 3e 40 01 9e 3d d2 b8 e4 3d
       -0.076293066 0.12500705 0.07715082 0.11168064
000070 eb 51 3f bd 25 ce a0 3c c8 ba 52 bd 5f 90 e5 3d
       -0.046708982 0.019629547 -0.05144766 0.11209177
000080 8d ab be bd 36 85 ab 3c 13 5b 0a 3d 49 77 7a bc
       -0.093100645 0.020937543 0.03377826 -0.015287229
000090 51 fd 59 bb eb 2b 24 3e 21 02 e1 3d e3 a4 5f 3d
       -0.003326256 0.16032378 0.10986734 0.054600608
0000a0 e4 b5 ce bc f2 51 e5 bd d3 eb cf 3d 60 f6 46 3d
       -0.025233217 -0.111972705 0.10152402 0.048574805
0000b0 c4 04 14 3e ce 0e df 3d 3a ab a3 bd e0 c2 3b bd
       0.14454943 0.10891496 -0.07991643 -0.045840144
0000c0 18 97 0b be ba b9 b6 3d e1 12 5b 3d fc e0 a7 3d
       -0.13631856 0.08922143 0.0534848 0.08197209
0000d0 f6 2f 9e 3d dd 31 ab 3d 62 c1 b2 3d 19 0f 11 be
       0.077239916 0.0835912 0.08728291 -0.14165916
0000e0 94 a0 18 3e bf 6c 81 3d 9c 7d 36 bc af 0a c5 3d
       0.14905006 0.0631957 -0.011138346 0.09621178
0000f0 03 19 de 3c a2 74 5a 3d 3d 54 a7 bd bd c7 c2 bd
       0.027111536 0.053333886 -0.08170364 -0.09510753
000100 4c 9f 0d 3d 13 cf c6 3d 81 7d 9a 3c 97 78 c1 3c
       0.034575745 0.09707465 0.018858673 0.023617072
000110 39 f4 fa bc fd 91 12 3e 85 4a ac bd b0 85 99 bd
       -0.030634033 0.14313503 -0.08412651 -0.07496202
000120 a1 46 a2 3c 9f c6 ef bd 60 35 9e 3b c8 60 38 bc
       0.01980907 -0.11707806 0.00482814 -0.011253543
000130 36 fd e0 3b f1 df e7 bb f4 40 f7 bb b8 e5 c8 bd
       0.0068661226 -0.0070762564 -0.007545585 -0.098094404
000140 c7 1c 0d be 6b dc 79 3d 81 8a 27 bd 9b a0 c4 3d
       -0.13780509 0.061001223 -0.040903572 0.096009456
000150 e9 65 6f bd 1a dd 0e 3d 64 7c 5a 3c 3f 61 64 3c
       -0.0584468 0.034878828 0.013335321 0.013939201
000160 07 02 26 bd b9 98 07 be 4c dc d7 bd f4 fd 2b 3d
       -0.040529277 -0.13241853 -0.10540065 0.041990235
000170 2f 37 69 bc 54 33 35 bc 8c ca 8e bc 95 e3 94 bb
       -0.014234348 -0.011059601 -0.017430566 -0.0045437315
000180 ee 4e 68 bb 9f 06 03 bc 5f 6c 06 bd e3 c6 07 be
       -0.0035447436 -0.007997184 -0.032818194 -0.13259463
000190 fa e2 e6 3c 70 98 52 bd b0 81 b5 3c c5 2c 74 bd
       0.028184403 -0.051414907 0.022156566 -0.059613008
0001a0 b8 fc 24 3e 34 d4 a6 bc 6c 12 e5 bc c7 da 68 3d
       0.1611203 -0.020364858 -0.027962886 0.056849267
0001b0 69 d6 39 3d 62 c9 dc 3d fe 7d 33 bc 7a d0 ff 3b
       0.045370493 0.10780598 -0.010955332 0.0078068348
0001c0 e9 d1 24 bd c6 b7 3b bd b0 7e 93 b9 5d 8d 3e bb
       -0.04023925 -0.045829557 -0.00028132414 -0.0029075958
0001d0 93 fd f9 3d 54 1e 7f bd 23 74 da 3c 61 c0 f8 bd
       0.122065686 -0.062284783 0.026666706 -0.12146068
0001e0 b4 3e dd 3b 47 d4 a5 3c 62 fb 38 bd a8 a4 0a 3d
       0.0067518596 0.020242823 -0.045161612 0.033848435
0001f0 c5 23 74 3c 19 0e c0 3d c9 3e 15 bd 04 90 02 bc
       0.014901106 0.09377689 -0.03643683 -0.007968906
000200 aa 5b 27 be 87 5c 8d bd 14 12 85 be 13 13 f1 bb
       -0.16343561 -0.06902414 -0.25990355 -0.00735701
000210 8a af 3a 3b 7c f2 f4 bd ef 36 0f 3e 0a 68 90 3d
       0.0028485977 -0.11960313 0.13985799 0.07051094
000220 36 98 97 3d 1c c0 0f 3e 34 bb 20 3e ec 21 a0 bc
       0.07402079 0.14038128 0.15696412 -0.019547425
000230 c5 71 ad 3d 9a de 3c 3d 8f fb 89 bd 71 ba 74 3d
       0.084689654 0.046110727 -0.06737434 0.059748117
000240 86 48 1b be 88 a7 21 be e7 35 60 3e 97 f9 50 be
       -0.15164384 -0.15786564 0.21895562 -0.20407711
000250 61 79 42 be d7 6e e0 bc 92 44 73 be 42 43 03 3e
       -0.18991615 -0.027396603 -0.23756626 0.12818626
000260 22 52 55 3e ae 8d 9e 3d 55 ae dd 3c 07 cc b4 3d
       0.20832112 0.07741867 0.027060667 0.08827978
000270 60 d1 d0 3d 3f 01 59 3c c5 c0 87 bd c0 7f e6 3d
       0.10196185 0.013244926 -0.06628565 0.11254835
000280 3d a6 08 3e 3b 5b 59 3e 92 ae 4b bd f5 31 95 3d
       0.13344665 0.21226208 -0.04972703 0.07284919
000290 f2 6c cd 3d 51 d8 2c 3d 43 c5 04 3e 60 f3 c6 bd
       0.10030545 0.042198483 0.12965874 -0.09714389
0002a0 4b ba 14 be a7 52 ec bd d0 bd 30 be 40 c7 56 3d
       -0.1452419 -0.11539202 -0.17259908 0.052436113
0002b0 d3 6d 10 3e da 68 d4 bd 98 75 2e be c3 64 0a ba
       0.14104395 -0.10371561 -0.17037046 -0.0005279297
0002c0 15 b0 2a be 13 93 dd 3d 0f 59 2a be e2 6f b1 bd
       -0.16668732 0.10819068 -0.16635536 -0.08663918
0002d0 40 08 bd 3d 00 be 55 3e 4f 8e 81 be 6a d9 bc bd
       0.09230089 0.2087326 -0.25303885 -0.09221156
0002e0 c8 bb fd bb 2a 15 58 3e 0d d0 57 be 7c 49 34 3d
       -0.0077433325 0.21101823 -0.21075459 0.044015393
0002f0 bc 5c f7 3d 29 82 26 be 77 03 58 be af d3 dc 3d
       0.120782346 -0.1626059 -0.21095072 0.10782563
000300 83 74 56 39 da 14 08 b8 95 48 b9 35 99 29 c7 b4
       0.00020452034 -3.2444346e-05 1.3804698e-06 -3.7096905e-07
000310 38 89 d4 b9 57 76 8b ba 4b c8 c2 3a 87 d9 8b 3c
       -0.00040538027 -0.0010640126 0.0014860717 0.017071499
000320 13 41 8e 3b a3 9c f0 3b 94 61 06 35 ba c4 11 b7
       0.0043412535 0.0073428913 5.0060885e-07 -8.6884775e-06
000330 b5 e2 90 3c 90 38 d9 34 06 7f e8 38 c8 b2 09 3b
       0.017686227 4.0460554e-07 0.00011086282 0.0021011103
000340 45 5f ef ba 98 3e db 3a 16 ac df b9 47 a9 21 3a
       -0.0018262645 0.0016727028 -0.00042662089 0.0006166887
000350 aa 39 65 37 c4 35 09 39 8e c6 0a b7 35 89 21 3a
       1.366289e-05 0.00013085367 -8.271671e-06 0.0006162108
000360 55 ee 41 bb 18 98 91 3a 2e 4e e7 39 17 d7 f1 bb
       -0.002959152 0.001110795 0.00044118002 -0.007380377
000370 dd 0a 63 39 a4 2c cd 3a bf 56 77 b3 c7 c4 3b b7
       0.00021652454 0.0015653563 -5.7588064e-08 -1.1191884e-05
000380 4c 71 83 ba 49 63 f6 34 ff ad 8c b5 15 fb b5 38
       -0.0010028272 4.589331e-07 -1.0481452e-06 8.67752e-05
000390 d4 73 5f b4 1d 56 dd b8 fe 66 f9 ba 46 c2 08 bb
       -2.0810631e-07 -0.00010554141 -0.0019027886 -0.002086775
0003a0 86 20 41 3a be 45 f0 36 11 27 b0 3a 6d a1 d9 38
       0.0007367212 7.1606764e-06 0.0013439377 0.00010377434
0003b0 28 db 85 34 94 07 9a 3a 08 01 27 bc fe 7d b2 b8
       2.4932638e-07 0.0011751526 -0.010193117 -8.511169e-05
0003c0 b0 b2 16 bc c9 b1 dc 39 b4 d9 49 3a f7 97 b8 3b
       -0.009197876 0.0004209413 0.0007699982 0.00563335
0003d0 1e e6 b0 b4 ca b8 56 ba fd 82 41 b7 5e 2d 19 3a
       -3.2949987e-07 -0.0008190988 -1.15341945e-05 0.0005843247
0003e0 fc 4a 9c ba 8d 97 29 bb ec ba a1 34 a9 a3 61 b9
       -0.0011924203 -0.0025877685 3.012459e-07 -0.0002151864
0003f0 b6 b4 1a 33 ba 98 4e 34 b4 14 89 3b 6d 47 91 3a
       3.6020275e-08 1.9240807e-07 0.004183376 0.0011083909

conv2.bias f4 [256]
000000 52 43 1f bd 2f 1e 44 3d fd 60 34 bd 47 bd 20 bd
       -0.03888256 0.047880348 -0.044037808 -0.03924301
000010 af f1 1b bd e7 f3 40 3d 0f 55 50 3d a5 4e 20 bd
       -0.038072284 0.047107603 0.05086237 -0.0391375
000020 4f 66 2d bd ac 67 32 bd 50 09 58 3d 13 53 41 3d
       -0.042333897 -0.0435559 0.052743256 0.047198366
000030 45 40 5d 3d 92 5c 36 bd 52 1a 1e bd 42 67 33 bd
       0.05401637 -0.044521876 -0.03859932 -0.043799646
000040 e1 b0 1e bd 9d 29 49 3d 5a 5c 48 3d d0 a8 40 3d
       -0.038742904 0.04911195 0.0489162 0.047035992
000050 2c 34 56 3d 98 98 34 bd f0 60 24 bd da 0d 4b 3d
       0.05229585 -0.044090837 -0.04013151 0.049573757
000060 75 cf 23 bd c9 4e 33 3d 93 71 4d 3d 9b 8a 4b 3d
       -0.03999277 0.043776307 0.05015714 0.04969273
000070 01 38 26 bd 73 4a 56 3d 83 91 35 bd a3 62 43 3d
       -0.040580753 0.052317094 -0.044328224 0.04770149
000080 47 9f 43 3d a4 69 34 bd e4 18 3f 3d f6 c7 4c 3d
       0.04775932 -0.04404606 0.046654597 0.049995385
000090 51 13 3a bd 1c 03 4a 3d 8f ab 45 3d c5 82 24 bd
       -0.045428578 0.04931937 0.048259314 -0.040163774
0000a0 dc f1 38 bd ab c0 3c bd 7f e3 21 bd d9 af 50 3d
       -0.04515253 -0.04608218 -0.039523598 0.05094895
0000b0 00 17 2e bd 74 45 45 3d 6a a2 41 3d 1d 4a 57 3d
       -0.042502403 0.04816194 0.04727403 0.052560914
0000c0 3c 45 1c bd 74 ff 47 3d 0b 63 42 3d 6f 67 5a 3d
       -0.038151965 0.048827603 0.047457736 0.0533213
0000d0 1e 61 3a 3d 0f 98 42 bd 9f 01 43 3d 5f 16 5e 3d
       0.045502774 -0.047508296 0.047608968 0.054220553
0000e0 8f b7 24 bd ed 87 41 3d 62 b8 3d bd fe 63 41 bd
       -0.040214118 0.04724877 -0.04631842 -0.0472145
0000f0 cd 75 34 3d b0 40 4e 3d 89 4e 27 bd c6 2b 29 bd
       0.044057656 0.05035466 -0.04084638 -0.04130151
000100 88 46 1c bd 8b 22 28 bd 8f df 20 bd 56 5c 4a 3d
       -0.0381532 -0.041048568 -0.039275702 0.049404465
000110 ce 2a 45 3d 09 4c 45 3d 6e 71 45 bd bd 6b 57 3d
       0.048136525 0.048168216 -0.048203878 0.05259298
000120 a5 9b 38 bd 1e 00 4a 3d 68 bb 54 3d ab da 3c 3d
       -0.04507031 0.049316518 0.051936537 0.046106976
000130 be 82 4b 3d d0 81 43 bd a9 04 41 3d b9 c6 29 bd
       0.049685232 -0.04773122 0.047123585 -0.041449282
000140 db b5 3e bd 9c 5b 1e bd f9 94 1f bd d1 f5 2e bd
       -0.04656015 -0.038661584 -0.03896043 -0.042714898
000150 37 fe 48 3d 40 aa 39 3d c9 96 2e bd ae 1b 45 3d
       0.049070563 0.04532838 -0.04262427 0.0481221
000160 b3 d4 48 3d d8 6e 44 3d 9b b0 31 bd b7 84 53 3d
       0.04903097 0.04795727 -0.043381315 0.05164024
000170 b5 e3 44 bd d6 e4 42 3d 65 bd 33 bd a6 0a 48 3d
       -0.04806872 0.047581516 -0.043881793 0.04883828
000180 b8 20 1f bd ac 2e 2f bd 1c ae 4b 3d e1 e7 30 bd
       -0.038849562 -0.04276912 0.04972659 -0.043189887
000190 0d 02 5a 3d 94 ff 52 3d dc 51 30 bd 14 e5 1f bd
       0.053224612 0.05151327 -0.043046817 -0.039036825
0001a0 97 69 41 3d 99 7d 27 bd 77 cd 2b bd 1b 1a 59 3d
       0.04721984 -0.040891264 -0.041943993 0.05300341
0001b0 8d 90 46 3d a6 93 2d bd 98 23 4a 3d b8 81 29 bd
       0.048477698 -0.042377137 0.04935035 -0.041383475
0001c0 cb 5b 2f bd fd ef 5a 3d 5f 5a 47 bd 46 79 25 bd
       -0.04281215 0.053451527 -0.04867017 -0.04039886
0001d0 27 53 21 bd 9e eb 56 3d 67 c7 21 bd ae 27 30 bd
       -0.03938594 0.052470796 -0.039496806 -0.04300659
0001e0 8a e7 58 3d c1 56 44 3d 66 08 28 bd 14 14 33 bd
       0.052955188 0.047934297 -0.041023634 -0.04372032
0001f0 8f e2 1e bd 31 c7 45 3d 09 c9 31 bd 5f d5 2b bd
       -0.03879028 0.048285667 -0.043404613 -0.041951533
000200 42 70 4e 3d 9e 9d 42 3d d3 99 2a bd d5 ce 27 bd
       0.050400026 0.047513597 -0.041650604 -0.040968735
000210 38 eb 44 bd 2b d4 57 3d 50 8e 51 3d c4 57 42 3d
       -0.048075885 0.052692574 0.05116111 0.04744698
000220 c6 6d 31 3d ae 3b 5e 3d 22 ea 34 3d fa 2e 21 bd
       0.04331758 0.054256134 0.0441686 -0.03935144
000230 34 aa 57 3d 8b 11 4e 3d 66 5a 0e bd 8e 01 20 bd
       0.052652553 0.0503097 -0.03475418 -0.039063983
000240 69 39 4e 3d 28 2e 26 bd 9d eb 2f bd ff 00 54 3d
       0.05034772 -0.04057136 -0.042949308 0.051758762
000250 64 1a 45 3d e3 3e 53 3d b9 bf 5d 3d 39 1e 24 bd
       0.04812087 0.051573645 0.05413792 -0.040067885
000260 25 12 4f 3d 3d d4 4f 3d e4 5a 2a bd f4 ad 5a 3d
       0.050554413 0.050739516 -0.041590586 0.05338855
000270 41 7a 1c bd 6d d6 4c 3d 11 24 25 bd c3 36 22 bd
       -0.038202528 0.05000918 -0.0403176 -0.039603006
000280 09 15 21 bd b2 b5 40 3d 09 9b 41 3d 19 d2 49 3d
       -0.0393267 0.04704828 0.047266994 0.04927263
000290 a3 c2 41 3d 36 11 1f bd 8e a9 4f 3d 71 c1 42 bd
       0.04730476 -0.038834773 0.05069881 -0.04754776
0002a0 a7 8c 46 3d 3c 71 22 bd 50 f1 1e bd 3a f2 40 3d
       0.04847398 -0.03965877 -0.038804352 0.047106005
0002b0 a5 7c 47 bd 9e 74 25 bd 00 ee 46 3d 0d 9d 3b bd
       -0.048702855 -0.040394418 0.04856682 -0.045804072
0002c0 fa 51 1f bd f8 a2 44 3d 92 e1 45 3d d7 84 49 3d
       -0.03889654 0.04800698 0.048310824 0.04919895
0002d0 cf b1 55 3d 68 c5 4f 3d 83 1a 3f bd 0f b8 32 bd
       0.052171525 0.05072537 -0.046656143 -0.043632563
0002e0 42 24 2e bd 79 b7 25 bd 51 f6 59 3d 1d 45 42 3d
       -0.042515047 -0.040458176 0.05321342 0.047429193
0002f0 51 51 47 3d 68 6f 46 3d 00 f5 43 bd 62 3d 4a 3d
       0.048661534 0.04844609 -0.047841072 0.049374945
000300 d0 d3 27 bd a1 86 46 bd 95 32 36 bd 4d 7d 21 bd
       -0.040973485 -0.048468236 -0.044481833 -0.039426137
000310 05 43 1d bd 03 da 37 bd 67 9c 40 3d 9f 34 57 3d
       -0.038393993 -0.044885647 0.047024157 0.052540418
000320 26 4b 4d 3d 13 a9 3e bd 3f d0 25 bd 32 af 49 3d
       0.050120495 -0.04654796 -0.040481802 0.049239345
000330 8a 29 1a bd 14 cb 3f 3d f6 94 57 3d 56 df 44 3d
       -0.03763727 0.04682453 0.052632295 0.048064552
000340 e7 56 30 bd 0d 7c 24 bd 99 cc 2c bd f2 69 1f bd
       -0.043051627 -0.040157367 -0.042187307 -0.038919397
000350 81 c6 4a bd 0f 2b 4c 3d e1 c4 37 bd 61 3d 2a bd
       -0.049505714 0.04984575 -0.044865493 -0.04156244
000360 df 7e 33 bd e2 e8 42 3d 46 21 5a 3d ca 94 56 3d
       -0.043822166 0.047585376 0.05325439 0.05238799
000370 85 b4 40 3d f2 b2 34 bd 55 b2 24 bd 54 0f 56 3d
       0.047047157 -0.044115968 -0.040209133 0.05226071
000380 43 21 35 bd ea eb 3b bd 7b a0 21 bd 28 1a 46 3d
       -0.044221174 -0.045879282 -0.039459687 0.04836479
000390 de d3 3a bd 11 26 5a 3d db 4e 40 3d 98 f3 34 bd
       -0.04561221 0.05325896 0.046950202 -0.04417762
0003a0 a0 3b 33 3d d8 16 22 bd ce 32 2b bd 50 4d 51 3d
       0.043758035 -0.039572567 -0.041796498 0.05109912
0003b0 9e da 2a bd b2 bb 3d 3d 72 94 22 bd 08 9a 57 3d
       -0.041712396 0.04632158 -0.03969235 0.05263713
0003c0 71 ee 41 3d 5b 00 40 3d c6 2b 41 3d a3 17 47 3d
       0.047346536 0.04687534 0.047160886 0.048606526
0003d0 96 9d 48 bd 23 aa 33 bd b7 83 22 bd f4 da 57 3d
       -0.04897841 -0.043863427 -0.039676394 0.052699044
0003e0 51 bc 2a bd 89 f7 35 bd c9 1a 49 3d 42 93 53 3d
       -0.0416835 -0.04442552 0.04909781 0.051654108
0003f0 e4 13 46 bd 7e 7d 46 3d 43 9c 22 bd 6e 63 22 bd
       -0.048358813 0.048459522 -0.039699804 -0.039645605
